foo.pt (torch, 3328 bytes, 2 tensors)

conv.0.weight f4 [6, 3, 5, 5]
000000 d8 60 2c 3c bf 12 dc 3d 7d 21 95 3c 00 a7 90 bd
       0.010521136 0.10745763 0.018204445 -0.07063103
000010 67 43 53 3a 05 22 85 bd 5f 21 ae bd 50 ea e0 3d
       0.0008059055 -0.06500629 -0.08502459 0.109821916
000020 79 0b a8 bd 86 e7 c6 bd e6 ef a1 bd b9 99 c7 bd
       -0.08205313 -0.09712128 -0.07907085 -0.09746117
000030 a3 20 01 3d 2e 4d df bc 61 b8 d1 bc 38 0d 70 3d
       0.031525265 -0.027258482 -0.025600614 0.058606356
000040 b5 19 a7 3d f1 cd 0c 3d f2 96 2b 3c 06 1b 32 bc
       0.081592 0.03437609 0.010473 -0.010870701
000050 f6 f6 6b bd 9c 13 8b bd db c0 41 bc d0 1c 01 3d
       -0.057608567 -0.067908496 -0.0118257655 0.03152162
000060 d7 4b 8a 3c ce 5f 98 bc 8a 16 8e bd ea da 16 bd
       0.016881866 -0.01860037 -0.06937893 -0.036829866
000070 f9 08 03 bd 62 b3 48 3d 72 69 cd 3d 43 63 e3 bd
       -0.03199098 0.048999198 0.10029878 -0.11102917
000080 c1 51 c7 ba af ce 00 bd 21 df cd bd 6a cd 04 3d
       -0.001520686 -0.03144711 -0.10052324 0.03242246
000090 f4 ee d5 3d 0c e7 c0 bd 8e 62 2e bd 51 6c a5 3d
       0.10445967 -0.09419069 -0.042574458 0.080773
0000a0 c1 b6 d3 bd 6f a7 d6 bd 52 a6 b1 3d ee 01 99 3d
       -0.10337592 -0.10481154 0.08674301 0.07471071
0000b0 27 3a a3 bd 4a e6 85 bd df 64 a9 bd 08 63 95 bd
       -0.07970076 -0.06538065 -0.08271193 -0.07294279
0000c0 b5 2e 6a bd 13 0a b3 bc 0c a0 9e bc 68 a4 3c 3c
       -0.05717345 -0.02185539 -0.019363426 0.011513807
0000d0 15 3d a3 bd 5c 42 31 bd 49 b3 a8 3d 4f f7 0c bd
       -0.07970635 -0.043276176 0.08237321 -0.03441554
0000e0 71 ba 01 bd b5 97 a7 3c 40 37 87 3d c0 5b 90 bd
       -0.031671945 0.020458082 0.06602335 -0.0704875
0000f0 94 f1 9a bc 6d 5a e9 bd f2 8c 57 3c 95 c2 b8 bd
       -0.018914022 -0.113942005 0.013156163 -0.090214886
000100 77 7e 53 3c 61 a0 df bd 64 38 91 bb 8c 85 1d 3d
       0.01290857 -0.10919262 -0.004431771 0.03845744
000110 48 2e b6 bd 48 a5 81 bd eb 4a 8e bd d8 e5 79 bd
       -0.08895546 -0.06330353 -0.06947883 -0.06101021
000120 4d a0 82 3d 9a 99 8c 3c 9b cc ca bd c8 cd ac bd
       0.06378231 0.017163087 -0.09902307 -0.08437687
000130 89 45 bd 3d 36 e9 d2 3d 24 45 5a bd b6 c2 e1 bd
       0.092417784 0.10298388 -0.053288594 -0.11023466
000140 8b 47 cc 3d fe d7 af bd 74 77 66 3d 43 d8 9f 3d
       0.09974583 -0.08586119 0.056266263 0.078049205
000150 d1 f9 26 bd 46 a1 d9 3d 4b c9 60 3d 38 53 81 3d
       -0.040765587 0.106264636 0.054879468 0.06314701
000160 0c a1 7b bc e4 b9 b9 bd e8 59 43 3d cf 96 9e bc
       -0.015358221 -0.09068659 0.047693163 -0.01935902
000170 01 79 96 bd db 4d eb 3d 17 59 64 3d fe e7 ac 3d
       -0.073472984 0.11489459 0.055749025 0.084426865
000180 43 73 d3 3d d9 0d c1 bc 53 94 81 bd b7 20 93 3c
       0.10324719 -0.023566173 -0.06327119 0.017959936
000190 0f 92 1e bd 34 d6 0e 3d 2b e6 bd 3d ee 5b b8 bc
       -0.03871351 0.03487225 0.09272417 -0.022504773
0001a0 18 e4 17 3d 13 9c 7e 3b ad 32 82 3d 91 6a 79 3d
       0.03708276 0.0038850352 0.06357322 0.060892645
0001b0 19 8e ab bd 3d 60 3a 3d 80 67 0d 3d 41 29 2e bd
       -0.08376712 0.045501936 0.034522533 -0.04251981
0001c0 b8 64 2f 3d 96 6e b6 bc 3b fe 4e bd b3 0c d2 3d
       0.042820662 -0.022269528 -0.05053542 0.102563284
0001d0 ff f4 9b 3d 67 2e af 3c 7d 47 3e bd 46 a1 7d bb
       0.07615089 0.021384431 -0.046454895 -0.0038700863
0001e0 0c f5 cb bd 1b 7f c4 bd 09 1d 4e bd 70 0f e2 bd
       -0.09958848 -0.09594556 -0.05032066 -0.11038101
0001f0 b6 2b e4 3d 84 76 2e 3d e1 e7 6a bd 20 ee bf bd
       0.1114115 0.042593494 -0.057350043 -0.093715906
000200 27 47 8e 3c 84 07 ba 3d 26 67 cd bd 0d 37 d1 bc
       0.017367912 0.09083465 -0.1002944 -0.025538946
000210 2e 76 44 3d 92 f2 85 3d bc d8 92 bd 84 73 8d bd
       0.047964267 0.06540407 -0.07170245 -0.069067985
000220 fe f2 07 bd a4 20 d4 3c 68 ed 8c bc 34 3d 6e bc
       -0.03319072 0.02589447 -0.017203048 -0.014540959
000230 51 fc 42 bc 2f de da bd 09 0d 9c bd 7c 6c 6f 3c
       -0.011900977 -0.106869094 -0.07619674 0.014613267
000240 c8 e6 10 bd d6 a5 8c bd 6b d2 1e bd 93 1a bd 3d
       -0.03537634 -0.06867568 -0.03877489 0.09233584
000250 69 10 de 3d 8e 91 83 bd 7d bf ba 3d 8a cb a7 bd
       0.10842974 -0.06424247 0.09118555 -0.08193119
000260 21 2d e7 bd 1c ac bf bd cd cc 9a 3c 63 24 1b bc
       -0.112879045 -0.09358999 0.018896485 -0.0094691245
000270 e4 3c b1 bd 18 e1 b9 3c b9 dd 55 3d b7 08 66 3d
       -0.08654192 0.02269034 0.052213404 0.056160655
000280 c1 9c 85 3d f1 bd a2 bc 6c 04 c6 3d c3 d4 c9 bd
       0.06524039 -0.019865962 0.09668812 -0.09855034
000290 fb 34 76 3d fe e3 83 3c 80 50 9a 3b 19 dc 91 3c
       0.06010912 0.016099926 0.0047093034 0.017805146
0002a0 4d 14 d9 bc 31 ae f8 bc 1c c8 60 3d 23 68 4d bd
       -0.026498938 -0.030356498 0.05487834 -0.05014814
0002b0 4d 6f e7 bd ff 60 ce 3d cd ef fa bb 5b f1 c0 bb
       -0.11300526 0.10077094 -0.007657981 -0.005888147
0002c0 99 2b d9 bd 98 e9 91 3d 21 7c b9 bd 09 1e 96 bd
       -0.10604019 0.071246326 -0.09056879 -0.073299475
0002d0 8a fc 6d bc 32 30 a7 bd f3 93 bd 3d 20 1d 97 bc
       -0.014525542 -0.081634894 0.09256735 -0.018446505
0002e0 1b 0b e3 3d ca d8 2c 3d 08 ea 9f bc 13 ae 29 bd
       0.110861026 0.042198934 -0.019520774 -0.041425776
0002f0 13 d4 a5 bd 03 c6 f6 bc 8f 34 1e 3d 89 80 01 3d
       -0.080970906 -0.030123716 0.038624343 0.03161672
000300 84 fa e6 bd a8 fe 38 bd 11 cf 87 bd e2 c6 52 3d
       -0.11278251 -0.045164734 -0.06631292 0.0514592
000310 5d 00 c1 bd 45 f0 c6 3d 21 89 b1 bb 63 40 a8 bd
       -0.094238974 0.097137965 -0.0054179584 -0.08215406
000320 a4 28 d0 3d e9 d7 83 3d b9 3f ff 3c 4d 6b 24 bd
       0.101640016 0.06437666 0.031158315 -0.040141392
000330 00 05 00 bd c8 5d 2d 3c c5 9e a7 bd 4f f2 dd bd
       -0.03125477 0.010581441 -0.0818458 -0.10837232
000340 79 2f e8 bd 09 a0 86 3d 0e 23 30 3d 77 a7 ba bd
       -0.1133718 0.06573493 0.04300218 -0.09113973
000350 ec 11 ae 3d 43 3b f0 3c b5 df 3e bd 34 1d 0f bd
       0.08499512 0.029325133 -0.046600062 -0.03493996
000360 cb 70 d4 bd b7 e9 83 bd f4 79 a6 bd 04 f4 8c bc
       -0.10373076 -0.06441062 -0.081287295 -0.0172062
000370 a3 89 71 bd c8 32 a8 3a 65 61 49 3c 61 58 d6 bc
       -0.05896915 0.0012832517 0.012291287 -0.02616519
000380 6f ad ab 3d 9a fa c7 3d 55 73 63 bd 2e 8f 44 bd
       0.08382689 0.09764595 -0.05552991 -0.04798811
000390 ac 40 e0 3d b5 d2 3c bd ca 60 bf 3c 27 f7 2d 3d
       0.10949835 -0.046099383 0.023361582 0.04247203
0003a0 6b 10 98 bc de cf 2c bc 78 f7 9a 3d 41 65 c2 3d
       -0.018562516 -0.010547606 0.07566732 0.09491969
0003b0 59 07 b3 bd 59 4a c2 3c a0 2d 3d bd 29 55 33 3c
       -0.08741636 0.023717092 -0.04618609 0.010945597
0003c0 db 05 b8 3d c6 f6 c8 bd f3 9f 3b 3d c7 54 ce 3d
       0.08985492 -0.09812693 0.045806836 0.10074764
0003d0 b6 1b a2 3d bf 6f 9d bd 7c 6e 31 bd 42 35 83 3c
       0.07915442 -0.076873295 -0.043318257 0.016016606
0003e0 97 76 6f bd e5 1c a5 bd 9b 6b e2 bd d4 8b 71 3c
       -0.058462705 -0.08062152 -0.1105568 0.01474281
0003f0 45 ec d5 3c bd 0f 82 bd 63 3a 2e bb 76 a6 67 bd
       0.026113639 -0.06350658 -0.0026585094 -0.056555234

conv.0.bias f4 [6]
000000 ed ae 0a bd b3 0a c9 3d 7d c4 cc 3d 10 c0 eb 3d
       -0.03385823 0.09816494 0.09998415 0.115112424
000010 cd b7 89 3d a4 85 ca 3d
       0.0672451 0.09888771
